…
/home/dwalth/data/conda/envs/3dunet/lib/python3.11/site-packages/torch/utils/data/dataloader.py:560: UserWarning: This DataLoader will create 8 worker processes in total. Our suggested max number of worker in current system is 1, which is smaller than what this DataLoader is going to create. Please be aware that excessive worker creation might get DataLoader running slow or even freeze, lower the worker number to avoid potential slowness/freeze if necessary.
  warnings.warn(_create_warning_msg(
2023-09-08 21:42:52,669 [MainThread] INFO UNetTrainer - ResidualUNet3D(
  (encoders): ModuleList(
    (0): Encoder(
      (basic_module): ResNetBlock(
        (conv1): Conv3d(3, 32, kernel_size=(1, 1, 1), stride=(1, 1, 1))
        (conv2): SingleConv(
          (groupnorm): GroupNorm(8, 32, eps=1e-05, affine=True)
          (conv): Conv3d(32, 32, kernel_size=(3, 3, 3), stride=(1, 1, 1), padding=(1, 1, 1), bias=False)
          (ReLU): ReLU(inplace=True)
        )
        (conv3): SingleConv(
          (groupnorm): GroupNorm(8, 32, eps=1e-05, affine=True)
          (conv): Conv3d(32, 32, kernel_size=(3, 3, 3), stride=(1, 1, 1), padding=(1, 1, 1), bias=False)
        )
        (non_linearity): ReLU(inplace=True)
      )
    )
    (1): Encoder(
      (pooling): MaxPool3d(kernel_size=2, stride=2, padding=0, dilation=1, ceil_mode=False)
      (basic_module): ResNetBlock(
        (conv1): Conv3d(32, 64, kernel_size=(1, 1, 1), stride=(1, 1, 1))
        (conv2): SingleConv(
          (groupnorm): GroupNorm(8, 64, eps=1e-05, affine=True)
          (conv): Conv3d(64, 64, kernel_size=(3, 3, 3), stride=(1, 1, 1), padding=(1, 1, 1), bias=False)
          (ReLU): ReLU(inplace=True)
        )
        (conv3): SingleConv(
          (groupnorm): GroupNorm(8, 64, eps=1e-05, affine=True)
          (conv): Conv3d(64, 64, kernel_size=(3, 3, 3), stride=(1, 1, 1), padding=(1, 1, 1), bias=False)
        )
        (non_linearity): ReLU(inplace=True)
      )
    )
    (2): Encoder(
      (pooling): MaxPool3d(kernel_size=2, stride=2, padding=0, dilation=1, ceil_mode=False)
      (basic_module): ResNetBlock(
        (conv1): Conv3d(64, 128, kernel_size=(1, 1, 1), stride=(1, 1, 1))
        (conv2): SingleConv(
          (groupnorm): GroupNorm(8, 128, eps=1e-05, affine=True)
          (conv): Conv3d(128, 128, kernel_size=(3, 3, 3), stride=(1, 1, 1), padding=(1, 1, 1), bias=False)
          (ReLU): ReLU(inplace=True)
        )
        (conv3): SingleConv(
          (groupnorm): GroupNorm(8, 128, eps=1e-05, affine=True)
          (conv): Conv3d(128, 128, kernel_size=(3, 3, 3), stride=(1, 1, 1), padding=(1, 1, 1), bias=False)
        )
        (non_linearity): ReLU(inplace=True)
      )
    )
    (3): Encoder(
      (pooling): MaxPool3d(kernel_size=2, stride=2, padding=0, dilation=1, ceil_mode=False)
      (basic_module): ResNetBlock(
        (conv1): Conv3d(128, 256, kernel_size=(1, 1, 1), stride=(1, 1, 1))
        (conv2): SingleConv(
          (groupnorm): GroupNorm(8, 256, eps=1e-05, affine=True)
          (conv): Conv3d(256, 256, kernel_size=(3, 3, 3), stride=(1, 1, 1), padding=(1, 1, 1), bias=False)
          (ReLU): ReLU(inplace=True)
        )
        (conv3): SingleConv(
          (groupnorm): GroupNorm(8, 256, eps=1e-05, affine=True)
          (conv): Conv3d(256, 256, kernel_size=(3, 3, 3), stride=(1, 1, 1), padding=(1, 1, 1), bias=False)
        )
        (non_linearity): ReLU(inplace=True)
      )
    )
    (4): Encoder(
      (pooling): MaxPool3d(kernel_size=2, stride=2, padding=0, dilation=1, ceil_mode=False)
      (basic_module): ResNetBlock(
        (conv1): Conv3d(256, 512, kernel_size=(1, 1, 1), stride=(1, 1, 1))
        (conv2): SingleConv(
          (groupnorm): GroupNorm(8, 512, eps=1e-05, affine=True)
          (conv): Conv3d(512, 512, kernel_size=(3, 3, 3), stride=(1, 1, 1), padding=(1, 1, 1), bias=False)
          (ReLU): ReLU(inplace=True)
        )
        (conv3): SingleConv(
          (groupnorm): GroupNorm(8, 512, eps=1e-05, affine=True)
          (conv): Conv3d(512, 512, kernel_size=(3, 3, 3), stride=(1, 1, 1), padding=(1, 1, 1), bias=False)
        )
        (non_linearity): ReLU(inplace=True)
      )
    )
  )
  (decoders): ModuleList(
    (0): Decoder(
      (upsampling): TransposeConvUpsampling(
        (upsample): ConvTranspose3d(512, 256, kernel_size=(3, 3, 3), stride=(2, 2, 2), padding=(1, 1, 1))
      )
      (basic_module): ResNetBlock(
        (conv1): Identity()
        (conv2): SingleConv(
          (groupnorm): GroupNorm(8, 256, eps=1e-05, affine=True)
          (conv): Conv3d(256, 256, kernel_size=(3, 3, 3), stride=(1, 1, 1), padding=(1, 1, 1), bias=False)
          (ReLU): ReLU(inplace=True)
        )
        (conv3): SingleConv(
          (groupnorm): GroupNorm(8, 256, eps=1e-05, affine=True)
          (conv): Conv3d(256, 256, kernel_size=(3, 3, 3), stride=(1, 1, 1), padding=(1, 1, 1), bias=False)
        )
        (non_linearity): ReLU(inplace=True)
      )
    )
    (1): Decoder(
      (upsampling): TransposeConvUpsampling(
        (upsample): ConvTranspose3d(256, 128, kernel_size=(3, 3, 3), stride=(2, 2, 2), padding=(1, 1, 1))
      )
      (basic_module): ResNetBlock(
        (conv1): Identity()
        (conv2): SingleConv(
          (groupnorm): GroupNorm(8, 128, eps=1e-05, affine=True)
          (conv): Conv3d(128, 128, kernel_size=(3, 3, 3), stride=(1, 1, 1), padding=(1, 1, 1), bias=False)
          (ReLU): ReLU(inplace=True)
        )
        (conv3): SingleConv(
          (groupnorm): GroupNorm(8, 128, eps=1e-05, affine=True)
          (conv): Conv3d(128, 128, kernel_size=(3, 3, 3), stride=(1, 1, 1), padding=(1, 1, 1), bias=False)
        )
        (non_linearity): ReLU(inplace=True)
      )
    )
    (2): Decoder(
      (upsampling): TransposeConvUpsampling(
        (upsample): ConvTranspose3d(128, 64, kernel_size=(3, 3, 3), stride=(2, 2, 2), padding=(1, 1, 1))
      )
      (basic_module): ResNetBlock(
        (conv1): Identity()
        (conv2): SingleConv(
          (groupnorm): GroupNorm(8, 64, eps=1e-05, affine=True)
          (conv): Conv3d(64, 64, kernel_size=(3, 3, 3), stride=(1, 1, 1), padding=(1, 1, 1), bias=False)
          (ReLU): ReLU(inplace=True)
        )
        (conv3): SingleConv(
          (groupnorm): GroupNorm(8, 64, eps=1e-05, affine=True)
          (conv): Conv3d(64, 64, kernel_size=(3, 3, 3), stride=(1, 1, 1), padding=(1, 1, 1), bias=False)
        )
        (non_linearity): ReLU(inplace=True)
      )
    )
    (3): Decoder(
      (upsampling): TransposeConvUpsampling(
        (upsample): ConvTranspose3d(64, 32, kernel_size=(3, 3, 3), stride=(2, 2, 2), padding=(1, 1, 1))
      )
      (basic_module): ResNetBlock(
        (conv1): Identity()
        (conv2): SingleConv(
          (groupnorm): GroupNorm(8, 32, eps=1e-05, affine=True)
          (conv): Conv3d(32, 32, kernel_size=(3, 3, 3), stride=(1, 1, 1), padding=(1, 1, 1), bias=False)
          (ReLU): ReLU(inplace=True)
        )
        (conv3): SingleConv(
          (groupnorm): GroupNorm(8, 32, eps=1e-05, affine=True)
          (conv): Conv3d(32, 32, kernel_size=(3, 3, 3), stride=(1, 1, 1), padding=(1, 1, 1), bias=False)
        )
        (non_linearity): ReLU(inplace=True)
      )
    )
  )
  (final_conv): Conv3d(32, 1, kernel_size=(1, 1, 1), stride=(1, 1, 1))
  (final_activation): Sigmoid()
)
2023-09-08 21:42:52,671 [MainThread] INFO UNetTrainer - eval_score_higher_is_better: False
2023-09-08 21:44:06,893 [MainThread] INFO UNetTrainer - Training iteration [1/150000]. Epoch [0/49999]
2023-09-08 21:44:13,765 [MainThread] INFO UNetTrainer - Training iteration [2/150000]. Epoch [0/49999]
2023-09-08 21:44:16,835 [MainThread] INFO UNetTrainer - Training iteration [3/150000]. Epoch [0/49999]
…
